…
print('test_loss', test_loss, 'test_acc', test_acc)

history_dict = history.history

loss_values = history_dict['loss']
epochs = range(1, len(loss_values) + 1)
plt.plot(epochs, loss_values, 'b', label='Train loss')
plt.title('Training loss')
plt.xlabel('Epochs')
plt.ylabel('Loss')
plt.legend()

plt.show()

</code></pre>
<p>具体的结构是跟书上的例子一模一样，可以看一些这个卷积神经网络的结构：</p>
<pre><code>Using TensorFlow backend.
_________________________________________________________________
Layer (type)                 Output Shape              Param #
=================================================================
conv2d_1 (Conv2D)            (None, 62, 62, 32)        896
_________________________________________________________________
max_pooling2d_1 (MaxPooling2 (None, 31, 31, 32)        0
_________________________________________________________________
conv2d_2 (Conv2D)            (None, 29, 29, 64)        18496
_________________________________________________________________
max_pooling2d_2 (MaxPooling2 (None, 14, 14, 64)        0
_________________________________________________________________
conv2d_3 (Conv2D)            (None, 12, 12, 64)        36928
_________________________________________________________________
flatten_1 (Flatten)          (None, 9216)              0
_________________________________________________________________
dense_1 (Dense)              (None, 64)                589888
_________________________________________________________________
dense_2 (Dense)              (None, 1)                 65
=================================================================
Total params: 646,273
Trainable params: 646,273
Non-trainable params: 0
</code></pre>
<p>这是它的训练结果，讲道理测试集准确度竟然达到了84%，不过损失函数曲线有点不稳定：</p>
<pre><code>train_loss 0.17385125616520786 train_acc 0.93779904391777
test_loss 0.5197753620147705 test_acc 0.8399999928474426
</code></pre>
<p><img src="https://raw.githubusercontent.com/Tudouvvv/Pic_path/master/keras_cat.png" alt=""></p>
…
